final_model_federated.tflite (tflite, 2880 bytes, 5 tensors)

arith.constant f4 [8]
0	0x00000000	0.0
1	0xbd1c9a03	-0.038232815
2	0xbc4c6176	-0.012474408
3	0x3f14c953	0.58119696
4	0x3e4d38b1	0.20041157
5	0x3d5b7284	0.053576007
6	0xbdf36d5b	-0.11886092
7	0xbc84be32	-0.016203973

arith.constant2 f4 [1, 8]
0	0xbdcf3a58	-0.1011855
1	0x3f9d319b	1.2280763
2	0x3d9a370a	0.07530029
3	0xbfb5afd8	-1.4194288
4	0x3f928527	1.1446885
5	0x3faf0b2c	1.3675284
6	0x3f82cf38	1.0219488
7	0x3f033b8a	0.51262724

arith.constant3 f4 [8, 16]
0	0x3ee68a84	0.45027554
1	0xbef31c48	-0.47482514
2	0x3e8b3fb0	0.27197027
3	0xbedca704	-0.43096173
4	0xbedab79c	-0.42718208
5	0xbdf14af0	-0.11781871
6	0x3e736278	0.23768032
7	0x3cc75f00	0.024337292
8	0xbdb5bbf0	-0.08873737
9	0xbca0cd80	-0.01962924
10	0x3ddaade0	0.10677695
11	0xbecb38f4	-0.3969189
12	0xbd9cffa0	-0.07665944
13	0xbe8e2970	-0.2776599
14	0xbe7106d8	-0.23537767
15	0x3e9d95d4	0.30778372
16	0x3dcdf380	0.100562096
17	0xbf61c743	-0.88194674
18	0x3f1c2559	0.6099449
19	0xbf972db8	-1.1810827
20	0x3e2bb388	0.16767704
21	0xbf4b5a34	-0.79434514
22	0x3ec34c20	0.38144016
23	0xbed2208e	-0.41040462
24	0x3ef4fc6c	0.47848833
25	0x3f07dafd	0.53068525
26	0x3f8a6e0a	1.0814831
27	0x3f833938	1.0251837
28	0xbf24ef3e	-0.64427555
29	0x3f1a9cab	0.60395306
30	0x3ee2db47	0.4430792
31	0x3f90e438	1.1319647
32	0xbda98720	-0.08277726
33	0xbe9d90db	-0.30774578
34	0xbec9e071	-0.39429048
35	0xbeaf905d	-0.34289828
36	0xbe6099c8	-0.21933663
37	0x3e27bec7	0.1638137
38	0xbe37d1a0	-0.1795106
39	0x3e42def8	0.19030368
40	0xbeb22568	-0.34794164
41	0xbee066e3	-0.43828496
42	0x3e9025e0	0.28153896
43	0xbe878624	-0.2646953
44	0xbe4757a5	-0.19467027
45	0xbe46e5c6	-0.19423589
46	0x3e88ed61	0.26743606
47	0xbd55c0a0	-0.052185655
48	0xbe6091f0	-0.2193067
49	0x3f9070e1	1.1284448
50	0xbf5f3906	-0.87196386
51	0x3fa198b4	1.2624726
52	0x3f8e4e19	1.1117584
53	0x3f9bfb05	1.218598
54	0x3e79173c	0.2432527
55	0xbefdf2ba	-0.49599248
56	0xbddac960	-0.106829405
57	0xbfaf1cf6	-1.3680713
58	0xbfaca00f	-1.3486346
59	0xbf8cbb33	-1.0994629
60	0x3fc23eb5	1.5175387
61	0xbf4b24d4	-0.7935307
62	0x3f871a2f	1.0554866
63	0xbfc2f0f6	-1.5229785
64	0xbef2dcc8	-0.47434068
65	0xbf4d7261	-0.80252653
66	0x3f407326	0.751757
67	0xbf12f6fd	-0.57408124
68	0x3e2c86ca	0.16848293
69	0xbf9ef476	-1.2418354
70	0x3e669862	0.22519067
71	0x3dbf1de5	0.09331874
72	0xbea0501c	-0.3131112
73	0x3fb48ca8	1.4105425
74	0x3f887248	1.0659876
75	0x3fb554b7	1.4166478
76	0xbf2ab9d0	-0.6668978
77	0x3f0eee63	0.558325
78	0x3e0b1ece	0.1358597
79	0x3f9fd614	1.2487206
80	0x3e88c290	0.2671094
81	0xbf92a159	-1.1455489
82	0x3f021af3	0.5082237
83	0xbed38ae7	-0.41316912
84	0x3eebcc7c	0.46054447
85	0xbfa62f46	-1.2983177
86	0xbe11c409	-0.14234938
87	0xbe78a890	-0.24283051
88	0xbe920f68	-0.2852738
89	0x3f989a4d	1.1922089
90	0x3f821718	1.0163298
91	0x3ef57899	0.4794357
92	0xbf92c32b	-1.146581
93	0x3f635d2c	0.88814044
94	0x3e8369a7	0.25666544
95	0x3f5d8082	0.8652421
96	0xbd5c3500	-0.053761482
97	0xbf21ebb9	-0.6325031
98	0x3f8281f8	1.0195913
99	0xbf40c020	-0.7529316
100	0x3eca40e8	0.39502645
101	0xbf80b8b2	-1.0056365
102	0xbee23ba4	-0.44186127
103	0xbeb71f15	-0.357659
104	0x3e96916c	0.29407823
105	0x3f4cc928	0.7999444
106	0x3eee4dbb	0.4654368
107	0x3f9779a8	1.1834002
108	0xbf08a542	-0.53377163
109	0x3f765416	0.96222055
110	0x3e0fa798	0.14028776
111	0x3f435fea	0.7631823
112	0xbe6002c0	-0.21876049
113	0x3e3d0921	0.18460514
114	0x3e0a91eb	0.13532226
115	0x3c871500	0.016489506
116	0xbea3152b	-0.31852087
117	0x3ed41741	0.4142399
118	0x3c66e380	0.014092326
119	0x3e16a354	0.14710742
120	0xbe56e470	-0.2098558
121	0xbec19aeb	-0.37813506
122	0x3d79e4ac	0.061009094
123	0xbf008397	-0.5020079
124	0xbe3756a4	-0.17904145
125	0x3ea6d1b3	0.32581863
126	0xbec5cd82	-0.38633353
127	0xbd28da60	-0.041223884

sequential_1/dense_1/MatMul f4 [16, 3]
0	0xbf0d494e	-0.5518998
1	0xbeaf3b9e	-0.34225172
2	0xbcb94fa0	-0.022620976
3	0x3f5467d4	0.8297093
4	0xbe804290	-0.25050783
5	0xbfb2eacd	-1.3977906
6	0xbdefd146	-0.117098376
7	0x3f1e19df	0.61758226
8	0x3fa961ad	1.3232933
9	0x3f3375fc	0.70101905
10	0xbf72a9d4	-0.9479039
11	0xbe914183	-0.28370294
12	0x3faf2c6e	1.3685434
13	0x3ef729b6	0.4827401
14	0x3f6ecc41	0.93280417
15	0x3fae7d81	1.3632051
16	0xbf573755	-0.84068805
17	0xbf8ca0d5	-1.0986582
18	0xbe543b7e	-0.2072582
19	0xbd50741f	-0.05089199
20	0x3e0e06d2	0.13869789
21	0xbe35f387	-0.1776868
22	0xbd2ac71e	-0.0416938
23	0x3e9a44ee	0.30130714
24	0xbecb69b9	-0.39729097
25	0xbe1ec054	-0.15503055
26	0xbea8d880	-0.32977676
27	0xbf1aea69	-0.6051393
28	0x3f7754a1	0.9661351
29	0x3f5459c5	0.8294948
30	0xbf0aaf44	-0.54173684
31	0x3f666073	0.8999092
32	0x3f7eb834	0.9949982
33	0xbf649be4	-0.8930037
34	0x3f920802	1.1408694
35	0x3fa0bbd5	1.2557322
36	0x3f851ac7	1.0398797
37	0xbf641e7e	-0.8910903
38	0xbf0e0f1a	-0.55491793
39	0xbc9d2320	-0.019181788
40	0x3f83313f	1.0249404
41	0x3ef46a71	0.47737458
42	0x3fc712e0	1.5552635
43	0x3f0abc1e	0.54193294
44	0x3f359ac7	0.70939296
45	0xbf6b8bab	-0.9200999
46	0x3f85df09	1.045869
47	0x3f8d9733	1.1061767

sequential_1/dense_1/Relu;sequential_1/dense_1/BiasAdd f4 [16]
0	0x00000000	0.0
1	0x3e48eb74	0.19621068
2	0xbe0cafa5	-0.13738878
3	0x3ede573d	0.43425933
4	0x3f793eff	0.9736175
5	0x3ec2398a	0.37934524
6	0xbcb4f6bb	-0.022090307
7	0xbdf38a4d	-0.11891613
8	0x00000000	0.0
9	0xbd9492c6	-0.07254557
10	0xbdc5f83d	-0.09666488
11	0xbd8c17ea	-0.06840499
12	0x3ef08577	0.46976826
13	0xbe203b8b	-0.15647714
14	0x3f6e7a9b	0.9315583
15	0xbd5dbdfc	-0.05413626
